Neural Network Tools for STM32 family v1.7.0 (stm.ai v8.1.0-19520)
Created date          : 2024-02-03 11:34:52
Parameters            : generate -m ../models/vanilla_lstm1_Coffee.onnx -o model/ -t onnx --series stm32f3

Exec/report summary (generate)
-------------------------------------------------------------------------------------------------------
model file         :   /home/bernhard/Documents/uni/bachelor_thesis/models/vanilla_lstm1_Coffee.onnx   
type               :   onnx                                                                            
c_name             :   network                                                                         
compression        :   lossless                                                                        
optimization       :   balanced                                                                        
target/series      :   stm32f3                                                                         
workspace dir      :   /home/bernhard/Documents/uni/bachelor_thesis/inference_tests/stm32ai_ws         
output dir         :   /home/bernhard/Documents/uni/bachelor_thesis/inference_tests/model              
model_fmt          :   float                                                                           
model_name         :   vanilla_lstm1_Coffee                                                            
model_hash         :   e25dda34a625e5692209df589b79c399                                                
params #           :   4,419 items (17.26 KiB)                                                         
-------------------------------------------------------------------------------------------------------
input 1/1          :   'input' (domain:user/)                                                          
                   :   286 items, 1.12 KiB, ai_float, float, (1,286,1)                                 
output 1/1         :   'output' (domain:user/)                                                         
                   :   2 items, 8 B, ai_float, float, (1,2)                                            
macc               :   1,253,920                                                                       
weights (ro)       :   18,060 B (17.64 KiB) (1 segment) / +384(+2.2%) vs float model                   
activations (rw)   :   37,504 B (36.62 KiB) (1 segment)                                                
ram (total)        :   38,656 B (37.75 KiB) = 37,504 + 1,144 + 8                                       
-------------------------------------------------------------------------------------------------------

Model name - vanilla_lstm1_Coffee ['input'] ['output']
------ -------------------------------------------- ---------------------------- -------------- ----------- ----------------------------- --- ------------- -------------- ---------------- 
m_id   layer (type,original)                        oshape                       param/size            macc                  connected to   | c_size        c_macc         c_type           
------ -------------------------------------------- ---------------------------- -------------- ----------- ----------------------------- --- ------------- -------------- ---------------- 
3      _Constant_1_output_0 (Placeholder, Gather)   []                           1/4                                                        |                              gather_of32[1]   
------ -------------------------------------------- ---------------------------- -------------- ----------- ----------------------------- --- ------------- -------------- ---------------- 
4      dense_weight (Placeholder, Gemm)             [h:2,h:2,c:32]               64/256                                                     | +8(+3.1%)     +66(+100.0%)   dense_of32[2]    
       dense_bias (Placeholder, Gemm)               [c:2]                        2/8                                                        | -8(-100.0%)                  
------ -------------------------------------------- ---------------------------- -------------- ----------- ----------------------------- --- ------------- -------------- ---------------- 
0      input (Input, )                              [b:1,h:286,h:286,c:1]                                                                   |                              
------ -------------------------------------------- ---------------------------- -------------- ----------- ----------------------------- --- ------------- -------------- ---------------- 
1      _lstm_LSTM_output_0_forward (LSTM, LSTM)     [b:1,h:286,h:286,c:32]       4,352/17,408     1,253,824                         input   | +384(+2.2%)                  lstm_of32[0]     
------ -------------------------------------------- ---------------------------- -------------- ----------- ----------------------------- --- ------------- -------------- ---------------- 
2      _lstm_LSTM_output_0 (Pack, LSTM)             [b:1,h:286,h:286,w:1,c:32]                                _lstm_LSTM_output_0_forward   |                              
       _lstm_Squeeze_output_0 (Reshape, Squeeze)    [b:1,h:286,h:286,c:32]                                            _lstm_LSTM_output_0   |                              
------ -------------------------------------------- ---------------------------- -------------- ----------- ----------------------------- --- ------------- -------------- ---------------- 
3      _Gather_output_0 (Gather, Gather)            [b:1,c:32]                                                     _lstm_Squeeze_output_0   |                              
                                                                                                                     _Constant_1_output_0   | 
------ -------------------------------------------- ---------------------------- -------------- ----------- ----------------------------- --- ------------- -------------- ---------------- 
4      _dense_Gemm_output_0 (Gemm, Gemm)            [b:1,c:2]                                            66              _Gather_output_0   |               -66(-100.0%)   
                                                                                                                             dense_weight   | 
                                                                                                                               dense_bias   | 
------ -------------------------------------------- ---------------------------- -------------- ----------- ----------------------------- --- ------------- -------------- ---------------- 
5      output (Nonlinearity, Softmax)               [b:1,c:2]                                            30          _dense_Gemm_output_0   |                              nl_of32[o][3]    
------ -------------------------------------------- ---------------------------- -------------- ----------- ----------------------------- --- ------------- -------------- ---------------- 
model/c-model: macc=1,253,920/1,253,920  weights=17,676/18,060 +384(+2.2%) activations=--/37,504 io=--/1,152



Generated C-graph summary
------------------------------------------------------------------------------------------------------------------------
model name            : vanilla_lstm1_coffee
c-name                : network
c-node #              : 4
c-array #             : 13
activations size      : 37504 (1 segment)
weights size          : 18060 (1 segment)
macc                  : 1253920
inputs                : ['input_output']
outputs               : ['output_output']

C-Arrays (13)
------ --------------------------------------- ------------ ------------------------- --------------- --------- --------- 
c_id   name (*_array)                          item/size    domain/mem-pool           c-type          fmt       comment   
------ --------------------------------------- ------------ ------------------------- --------------- --------- --------- 
0      input_output                            286/1144     user/                     float           float32   /input    
1      _lstm_LSTM_output_0_forward_output0     9152/36608   activations/**default**   float           float32             
2      _lstm_LSTM_output_0_forward_scratch0    224/896      activations/**default**   float           float32             
3      _Gather_output_0_output                 32/128       activations/**default**   float           float32             
4      _dense_Gemm_output_0_output             2/8          activations/**default**   float           float32             
5      output_output                           2/8          user/                     float           float32   /output   
6      _lstm_LSTM_output_0_forward_kernel      128/512      weights/weights           const float     float32             
7      _lstm_LSTM_output_0_forward_recurrent   4096/16384   weights/weights           const float     float32             
8      _lstm_LSTM_output_0_forward_peephole    96/384       weights/weights           const float     float32             
9      _lstm_LSTM_output_0_forward_bias        128/512      weights/weights           const float     float32             
10     _Constant_1_output_0                    1/4          weights/weights           const int32_t   s32                 
11     _dense_Gemm_output_0_weights            64/256       weights/weights           const float     float32             
12     _dense_Gemm_output_0_bias               2/8          weights/weights           const float     float32             
------ --------------------------------------- ------------ ------------------------- --------------- --------- --------- 

C-Layers (4)
------ ----------------------------- ---- ------------ --------- ------- ------------------------------------------ ------------------ 
c_id   name (*_layer)                id   layer_type   macc      rom     tensors                                    shape (array id)   
------ ----------------------------- ---- ------------ --------- ------- ------------------------------------------ ------------------ 
0      _lstm_LSTM_output_0_forward   1    lstm         1253824   17792   I: input_output                            (1,286,1) (0)      
                                                                         S: _lstm_LSTM_output_0_forward_scratch0                       
                                                                         W: _lstm_LSTM_output_0_forward_kernel      (1,128) (6)        
                                                                         W: _lstm_LSTM_output_0_forward_recurrent   (32,128) (7)       
                                                                         W: _lstm_LSTM_output_0_forward_peephole    (1,1,1,96) (8)     
                                                                         W: _lstm_LSTM_output_0_forward_bias        (128,) (9)         
                                                                         O: _lstm_LSTM_output_0_forward_output0     (1,286,32) (1)     
------ ----------------------------- ---- ------------ --------- ------- ------------------------------------------ ------------------ 
1      _Gather_output_0              3    gather       0         4       I: _lstm_LSTM_output_0_forward_output0     (1,286,32) (1)     
                                                                         I: _Constant_1_output_0                    (1,) (10)          
                                                                         O: _Gather_output_0_output                 (1,32) (3)         
------ ----------------------------- ---- ------------ --------- ------- ------------------------------------------ ------------------ 
2      _dense_Gemm_output_0          4    dense        66        264     I: _Gather_output_0_output                 (1,32) (3)         
                                                                         W: _dense_Gemm_output_0_weights            (32,2) (11)        
                                                                         W: _dense_Gemm_output_0_bias               (2,) (12)          
                                                                         O: _dense_Gemm_output_0_output             (1,2) (4)          
------ ----------------------------- ---- ------------ --------- ------- ------------------------------------------ ------------------ 
3      output                        5    nl           30        0       I: _dense_Gemm_output_0_output             (1,2) (4)          
                                                                         O: output_output                           (1,2) (5)          
------ ----------------------------- ---- ------------ --------- ------- ------------------------------------------ ------------------ 



Number of operations per c-layer
------- ------ ------------------------------------ ----------- -------------- -------- ---------- 
c_id    m_id   name (type)                                  #op           type   #param   sparsity 
------- ------ ------------------------------------ ----------- -------------- -------- ---------- 
0       1      _lstm_LSTM_output_0_forward (lstm)     1,253,824   smul_f32_f32    4,448     0.0216 
1       3      _Gather_output_0 (gather)                      0   smul_f32_s32        1     0.0000 
2       4      _dense_Gemm_output_0 (dense)                  66   smul_f32_f32       66     0.0000 
3       5      output (nl)                                   30     op_f32_f32          
------- ------ ------------------------------------ ----------- -------------- -------- ---------- 
total                                                 1,253,920                   4,515     0.0213 

Number of operation types
---------------- ----------- ----------- 
operation type             #           % 
---------------- ----------- ----------- 
smul_f32_f32       1,253,890      100.0% 
smul_f32_s32               0        0.0% 
op_f32_f32                30        0.0% 

Complexity report (model)
------ ----------------------------- ------------------------- ------------------------- ------ 
m_id   name                          c_macc                    c_rom                     c_id   
------ ----------------------------- ------------------------- ------------------------- ------ 
3      _Constant_1_output_0          |                  0.0%   |                  0.0%   [1]    
4      dense_weight                  |                  0.0%   |                  1.5%   [2]    
1      _lstm_LSTM_output_0_forward   |||||||||||||||| 100.0%   ||||||||||||||||  98.5%   [0]    
5      output                        |                  0.0%   |                  0.0%   [3]    
------ ----------------------------- ------------------------- ------------------------- ------ 
macc=1,253,920 weights=18,060 act=37,504 ram_io=1,152
 
 Requested memory size per segment ("stm32f3" series)
 ----------------------------- -------- -------- ------- -------- 
 module                            text   rodata    data      bss 
 ----------------------------- -------- -------- ------- -------- 
 NetworkRuntime810_CM4_GCC.a     14,536        0       0        0 
 network.o                          572       32   1,648      132 
 network_data.o                      56       48      88        0 
 lib (toolchain)*                 1,576       24       1        0 
 ----------------------------- -------- -------- ------- -------- 
 RT total**                      16,740      104   1,737      132 
 ----------------------------- -------- -------- ------- -------- 
 *weights*                            0   18,064       0        0 
 *activations*                        0        0       0   37,504 
 *io*                                 0        0       0    1,152 
 ----------------------------- -------- -------- ------- -------- 
 TOTAL                           16,740   18,168   1,737   38,788 
 ----------------------------- -------- -------- ------- -------- 
 *  toolchain objects (libm/libgcc*)
 ** RT - AI runtime objects (kernels+infrastructure)
  
  Summary per memory device type
  --------------------------------------------
  .\device      FLASH       %      RAM      % 
  --------------------------------------------
  RT total     18,581   50.7%    1,869   4.6% 
  --------------------------------------------
  TOTAL        36,645           40,525        
  --------------------------------------------


Generated files (7)
------------------------------------------------------------------------------------------ 
/home/bernhard/Documents/uni/bachelor_thesis/inference_tests/model/network_config.h        
/home/bernhard/Documents/uni/bachelor_thesis/inference_tests/model/network.h               
/home/bernhard/Documents/uni/bachelor_thesis/inference_tests/model/network.c               
/home/bernhard/Documents/uni/bachelor_thesis/inference_tests/model/network_data_params.h   
/home/bernhard/Documents/uni/bachelor_thesis/inference_tests/model/network_data_params.c   
/home/bernhard/Documents/uni/bachelor_thesis/inference_tests/model/network_data.h          
/home/bernhard/Documents/uni/bachelor_thesis/inference_tests/model/network_data.c          
